lib/models/trained.tflite (tflite, 46456 bytes, 3 tensors)

sequential/y_pred/MatMul i1 [2, 18432] scale=0.00038170617 zero_point=0
000000 00 c0 10 22 2e cf ea ce e7 0f ca cd ef 1b 0d fd
       0.0 -0.024429195 0.0061072987 0.01297801 0.017558483 -0.018703602 -0.008397535 -0.019085309 -0.009542654 0.0057255924 -0.020612134 -0.019467015 -0.006489005 0.010306067 0.0049621803 -0.0011451185
000010 1f 0d 3f d4 0b f7 ea 01 e2 fa 2e fc 31 f4 fd 19
       0.011832891 0.0049621803 0.024047488 -0.01679507 0.0041987677 -0.0034353556 -0.008397535 0.00038170617 -0.011451185 -0.002290237 0.017558483 -0.0015268247 0.018703602 -0.004580474 -0.0011451185 0.009542654
000020 d8 1a 09 e0 e6 c5 05 0e f2 11 c5 ff fb 1c 15 da
       -0.015268247 0.009924361 0.0034353556 -0.012214597 -0.009924361 -0.022520663 0.0019085308 0.005343886 -0.005343886 0.006489005 -0.022520663 -0.00038170617 -0.0019085308 0.010687772 0.008015829 -0.014504834
000030 f3 d9 f0 c7 2c bf 04 f8 c4 bf 1a 01 ee ec 24 0c
       -0.0049621803 -0.01488654 -0.0061072987 -0.02175725 0.01679507 -0.0248109 0.0015268247 -0.0030536493 -0.02290237 -0.0248109 0.009924361 0.00038170617 -0.006870711 -0.0076341233 0.013741422 0.004580474
000040 ef d3 13 1b df 19 e0 11 04 fc 02 c2 17 fa 0f 0d
       -0.006489005 -0.017176777 0.007252417 0.010306067 -0.012596304 0.009542654 -0.012214597 0.006489005 0.0015268247 -0.0015268247 0.00076341233 -0.023665782 0.008779242 -0.002290237 0.0057255924 0.0049621803
000050 fd fd c6 e8 0a f5 fd 1a 12 e9 fe ff 49 fb b3 fd
       -0.0011451185 -0.0011451185 -0.022138957 -0.009160948 0.0038170617 -0.0041987677 -0.0011451185 0.009924361 0.006870711 -0.008779242 -0.00076341233 -0.00038170617 0.02786455 -0.0019085308 -0.029391374 -0.0011451185
000060 29 20 18 0d 0a 0c cf 05 01 e9 f5 23 f7 d6 1f d1
       0.015649952 0.012214597 0.009160948 0.0049621803 0.0038170617 0.004580474 -0.018703602 0.0019085308 0.00038170617 -0.008779242 -0.0041987677 0.013359716 -0.0034353556 -0.016031658 0.011832891 -0.01794019
000070 d3 29 d2 20 1c 0c be d1 ef cd 01 2b 12 d5 2c f2
       -0.017176777 0.015649952 -0.017558483 0.012214597 0.010687772 0.004580474 -0.025192607 -0.01794019 -0.006489005 -0.019467015 0.00038170617 0.016413365 0.006870711 -0.016413365 0.01679507 -0.005343886
000080 37 2c e2 3e dd 1f 1b 12 f8 0b 26 23 50 36 0c 25
       0.02099384 0.01679507 -0.011451185 0.023665782 -0.013359716 0.011832891 0.010306067 0.006870711 -0.0030536493 0.0041987677 0.014504834 0.013359716 0.030536493 0.020612134 0.004580474 0.014123128
000090 0f f4 1b 33 14 47 cd 06 ee e6 0d f9 fc 49 0e 1f
       0.0057255924 -0.004580474 0.010306067 0.019467015 0.0076341233 0.027101139 -0.019467015 0.002290237 -0.006870711 -0.009924361 0.0049621803 -0.002671943 -0.0015268247 0.02786455 0.005343886 0.011832891
0000a0 fc 21 1b 10 f6 12 1d 4a 35 f9 0f 1b 53 3f 2e 08
       -0.0015268247 0.012596304 0.010306067 0.0061072987 -0.0038170617 0.006870711 0.0110694785 0.028246256 0.020230427 -0.002671943 0.0057255924 0.010306067 0.031681612 0.024047488 0.017558483 0.0030536493
0000b0 2e f9 4c 2c 42 3e 09 30 25 f8 f8 f3 ee 4f dd f2
       0.017558483 -0.002671943 0.029009668 0.01679507 0.025192607 0.023665782 0.0034353556 0.018321896 0.014123128 -0.0030536493 -0.0030536493 -0.0049621803 -0.006870711 0.030154787 -0.013359716 -0.005343886
0000c0 44 2f 30 ec 06 16 12 39 1c 1c 3d e9 3e fb fa 43
       0.02595602 0.01794019 0.018321896 -0.0076341233 0.002290237 0.008397535 0.006870711 0.02175725 0.010687772 0.010687772 0.023284076 -0.008779242 0.023665782 -0.0019085308 -0.002290237 0.025574313
0000d0 f5 22 24 46 f2 25 24 22 15 0c 24 fd 02 28 61 25
       -0.0041987677 0.01297801 0.013741422 0.026719432 -0.005343886 0.014123128 0.013741422 0.01297801 0.008015829 0.004580474 0.013741422 -0.0011451185 0.00076341233 0.015268247 0.037025496 0.014123128
0000e0 2c 42 3a f6 f7 02 e7 17 40 27 42 e5 e0 32 02 4c
       0.01679507 0.025192607 0.022138957 -0.0038170617 -0.0034353556 0.00076341233 -0.009542654 0.008779242 0.024429195 0.01488654 0.025192607 -0.010306067 -0.012214597 0.019085309 0.00076341233 0.029009668
0000f0 44 2e 4a eb 1d 2a e8 fb fb 22 14 f9 d9 46 15 0c
       0.02595602 0.017558483 0.028246256 -0.008015829 0.0110694785 0.016031658 -0.009160948 -0.0019085308 -0.0019085308 0.01297801 0.0076341233 -0.002671943 -0.01488654 0.026719432 0.008015829 0.004580474

sequential/conv2d_1/Conv2D i1 [32, 3, 3, 16]
000000 35 76 e8 10 fa 0f bc 62 2b 2b a2 53 12 78 51 0d
       53 118 -24 16 -6 15 -68 98 43 43 -94 83 18 120 81 13
000010 d7 29 af 71 f5 78 6f 2f a8 9d d8 68 62 0a aa e8
       -41 41 -81 113 -11 120 111 47 -88 -99 -40 104 98 10 -86 -24
000020 6b 3b 0c 7f 31 83 e0 3a 48 c3 33 34 39 cd 52 0d
       107 59 12 127 49 -125 -32 58 72 -61 51 52 57 -51 82 13
000030 a7 98 48 4d 5c ee b3 3a 5c 53 0c d7 29 4f 5d 9e
       -89 -104 72 77 92 -18 -77 58 92 83 12 -41 41 79 93 -98
000040 99 a1 02 b3 e6 44 61 b9 d2 d4 0f 06 19 c6 bb c9
       -103 -95 2 -77 -26 68 97 -71 -46 -44 15 6 25 -58 -69 -55
000050 e5 f5 d8 e3 c6 58 2d fd 56 f1 03 a2 b6 fe d1 53
       -27 -11 -40 -29 -58 88 45 -3 86 -15 3 -94 -74 -2 -47 83
000060 32 4c d3 bc f4 50 e2 66 4b 0e fd c8 f6 1a 03 c7
       50 76 -45 -68 -12 80 -30 102 75 14 -3 -56 -10 26 3 -57
000070 23 11 c4 16 43 52 94 ee 64 5e e8 95 f5 f5 b7 1c
       35 17 -60 22 67 82 -108 -18 100 94 -24 -107 -11 -11 -73 28
000080 d3 ea cd 0b fe f5 ab 0a a1 bf b9 9f 18 f0 23 5b
       -45 -22 -51 11 -2 -11 -85 10 -95 -65 -71 -97 24 -16 35 91
000090 d2 f9 00 ea b2 d6 5e 47 57 27 c7 0d 19 46 9a 5c
       -46 -7 0 -22 -78 -42 94 71 87 39 -57 13 25 70 -102 92
0000a0 0e 4c e8 2c 4b df df a0 b5 56 6c 13 d4 00 3e 15
       14 76 -24 44 75 -33 -33 -96 -75 86 108 19 -44 0 62 21
0000b0 b0 50 1c a0 db 22 91 de c9 d6 d0 3d 3f 6f 1d b1
       -80 80 28 -96 -37 34 -111 -34 -55 -42 -48 61 63 111 29 -79
0000c0 6f 6a 77 63 d3 08 ba 27 28 cf 0b 6c 16 b2 70 3a
       111 106 119 99 -45 8 -70 39 40 -49 11 108 22 -78 112 58
0000d0 68 ed 59 fb 54 d3 cd 56 bb d3 e9 70 cb c7 d3 bb
       104 -19 89 -5 84 -45 -51 86 -69 -45 -23 112 -53 -57 -45 -69
0000e0 0f 05 f6 0e fd 23 15 27 e9 1a 1a 59 32 fd 70 4e
       15 5 -10 14 -3 35 21 39 -23 26 26 89 50 -3 112 78
0000f0 d8 fa dd 21 6d 51 dc 48 c3 6a 57 d8 d4 4c b5 28
       -40 -6 -35 33 109 81 -36 72 -61 106 87 -40 -44 76 -75 40

sequential/conv2d/Conv2D i1 [16, 3, 3, 3]
000000 fe 02 8b 4a b3 25 62 94 f1 e7 2f 34 3f 0e 1c 95
       -2 2 -117 74 -77 37 98 -108 -15 -25 47 52 63 14 28 -107
000010 20 47 18 48 25 a0 da 7f e1 6a 99 93 ee 8e 9f fb
       32 71 24 72 37 -96 -38 127 -31 106 -103 -109 -18 -114 -97 -5
000020 df 53 6e 90 7f 3d 32 24 a2 dd 16 dc 27 bd 06 64
       -33 83 110 -112 127 61 50 36 -94 -35 22 -36 39 -67 6 100
000030 b5 f4 5c 11 f4 47 4e 8c 8b 37 b4 32 3a ac 45 5a
       -75 -12 92 17 -12 71 78 -116 -117 55 -76 50 58 -84 69 90
000040 79 f9 29 9b f3 9f 8d 79 3d ea 28 08 0f 2c 64 7f
       121 -7 41 -101 -13 -97 -115 121 61 -22 40 8 15 44 100 127
000050 bd a7 04 6d 73 6e fe f5 29 7f 39 43 5e 31 6e 7a
       -67 -89 4 109 115 110 -2 -11 41 127 57 67 94 49 110 122
000060 42 5a 40 dc 95 ad 05 3c 73 76 ba db 6f e8 a0 ff
       66 90 64 -36 -107 -83 5 60 115 118 -70 -37 111 -24 -96 -1
000070 e5 8b 42 db a7 a7 ba 8b 81 dd 54 a5 a2 43 ca bf
       -27 -117 66 -37 -89 -89 -70 -117 -127 -35 84 -91 -94 67 -54 -65
000080 4d 63 b5 72 19 ec d7 da f8 43 b2 f1 cf 1a d9 93
       77 99 -75 114 25 -20 -41 -38 -8 67 -78 -15 -49 26 -39 -109
000090 04 d1 7f e7 12 9e 82 1c 64 ed 70 90 43 26 98 af
       4 -47 127 -25 18 -98 -126 28 100 -19 112 -112 67 38 -104 -81
0000a0 9c f9 3e ed dd b8 83 b4 b4 07 c2 10 cc f0 cc 7e
       -100 -7 62 -19 -35 -72 -125 -76 -76 7 -62 16 -52 -16 -52 126
0000b0 25 fa 3a 99 85 bc d3 5a bb 57 1b bd 81 67 4d 6a
       37 -6 58 -103 -123 -68 -45 90 -69 87 27 -67 -127 103 77 106
0000c0 ac e4 78 53 e1 fb d9 e2 a1 61 03 7f dd 58 09 46
       -84 -28 120 83 -31 -5 -39 -30 -95 97 3 127 -35 88 9 70
0000d0 44 e0 ce a0 37 0d 72 3d 49 1c e5 cb d5 8f 9d 25
       68 -32 -50 -96 55 13 114 61 73 28 -27 -53 -43 -113 -99 37
0000e0 d3 85 fa 52 00 92 8c 4f cb e9 d9 67 3d 5c c8 40
       -45 -123 -6 82 0 -110 -116 79 -53 -23 -39 103 61 92 -56 64
0000f0 e2 7f 7f a8 61 69 72 04 c7 ae 2e dd 77 ca 24 c0
       -30 127 127 -88 97 105 114 4 -57 -82 46 -35 119 -54 36 -64
